Ch0-PyTorch-DL-Fundamentals/best_model/03_pytorch_model_2.pth (torch, 34507 bytes, 10 tensors)

conv_block_1.0.weight f4 [10, 1, 3, 3]
00000000: 2ca7 263e 4c30 813e a6b2 adbe b577 cd3e
00000010: 0b19 e23d 1d1d f73c fc43 96be e2e3 d63d
00000020: 69bd 873e 6d11 9cbe 1345 d63e 8cf3 06bc
00000030: a64f 873e 7db2 b03e fef8 4e3e 5eb2 3ebe
00000040: 6917 ce3e f076 92ba ffb6 83be 03a0 a8bd
00000050: cf06 96bc fdbe 2dbf 137e 39bf ed1f 533e
00000060: 8bcc 4bbf 8de3 30bf a8ce 01be a66c 1cbf
00000070: 1d60 79bf ad31 61bf cc16 8b3e 07e1 43bf
00000080: fbbf c23c 9e40 8a3e 5f82 8f3c 1c69 e63e
00000090: 1dfd 903c 085e c73e 6237 30be 994c 4bbe
000000a0: ca12 ce3e 0513 bebe eaea b7bd 33b5 e93e
000000b0: d4b3 4d3c 6fa9 15be b27c 423e e67c 713d
000000c0: 76c4 2b3e 4133 51be 2ad1 a8be e765 02be
000000d0: 7e51 83be 8f98 843e 80a8 283e e17b b63d
000000e0: 255d 8ebd 6354 173d 06ae 4b3e 48dc 83be
000000f0: 6be2 263d 6dae d2be 1b2e 07be d0c1 3cbe
00000100: f070 71bc d444 32be 0210 903e b5a9 38be
00000110: b6ff 88be 8493 7abe 8d6b 093f b70d 903e
00000120: 6e00 113f 1ffa 9bbe 87f3 d1be 74cc 70be
00000130: be06 c4be bbf2 273d 3fd1 ce3e 554e e13e
00000140: 41fa f1bd b5aa 68be 92b3 343e 3764 09be
00000150: 2a5a 4e3e 6024 a5bd 852d 423e 3193 84be
00000160: a84c 2cbe ad57 d03d
0.16274709 0.2523216 -0.3392536 0.40130392 0.11039933 0.03016525 -0.29348743 0.10492684
0.26511696 -0.30482045 0.41849574 -0.008236777 0.26427954 0.34511176 0.2021217 -0.18622729
0.40252236 -0.0011174362 -0.25725552 -0.08233645 -0.018313793 -0.6786955 -0.72458 0.20617647
-0.7960898 -0.69097215 -0.1267649 -0.61103284 -0.9741228 -0.87966424 0.2716583 -0.7651524
0.023773184 0.27002424 0.01751822 0.45002067 0.017698819 0.38938928 -0.17208627 -0.19853438
0.4024871 -0.37123886 -0.08980353 0.45646057 0.012555081 -0.14615415 0.1899288 0.058957003
0.16774163 -0.20429708 -0.3297208 -0.12734185 -0.2564811 0.25897643 0.16470528 0.08910347
-0.0695136 0.03694571 0.19890603 -0.25754 0.040743273 -0.411487 -0.13201182 -0.18433309
-0.014736399 -0.17409068 0.28137213 -0.18033488 -0.26757592 -0.24470335 0.53679734 0.28135464
0.5664128 -0.30464265 -0.4100611 -0.23515493 -0.38286394 0.04100297 0.40394017 0.44005075
-0.1181531 -0.2272137 0.17646626 -0.13417135 0.20151582 -0.080635786 0.18962677 -0.25893548
-0.16826117 0.10172973

conv_block_1.0.bias f4 [10]
00000000: a28a 253d 0ad6 b3bc fd2a 4e3e ef47 303e
00000010: 131e af3d 51d7 49be 4b59 883d 9f88 65bd
00000020: 9902 9fbd 74d8 a5be
0.040415414 -0.021952648 0.20133586 0.1721494 0.08550658 -0.19711043 0.06657656 -0.056038495
-0.07764167 -0.32391703

conv_block_1.2.weight f4 [10, 10, 3, 3]
00000000: 2bd8 543e 060d 9c3d 4e6f a23c 4c1f 83bd
00000010: 57f8 41be 6028 6cbe 1b94 cfbd 494b 77be
00000020: 924b 6bbe 16e9 093c 7d84 cf3c 421d 33bd
00000030: f0aa 20be 2bda a6be 23e5 4dbe d2f3 a9bd
00000040: 83f0 3cbe 50f0 42be 3b69 21bb dff6 713d
00000050: 5510 fc3d 4b58 a03d 0dc1 a33e 8686 783e
00000060: 5332 3bbb e787 dc3d e877 073e 52fd 44be
00000070: 3111 8bbc b88a 04be e29e 9d3c 1d8e 823a
00000080: ae0f f3bd 27dc 743e bd3f 7b3d 7e25 183c
00000090: 06bd 9cbd f5b8 19be 0c70 30bd 662f 86bd
000000a0: 47d8 a1bd 3dc0 69be c968 fd3d 40a5 07be
000000b0: 4577 e2bd cd9d be3c 10ec 603d 536f ad3d
000000c0: 04d4 c43d 5a4a abbd cf0e e13c c50f 3abd
000000d0: b013 54bc c024 9fbd 4121 633e 6a7e 13bd
000000e0: b49f 16bd 5330 343e 265f 203d 7041 fcbd
000000f0: 6ef8 9a3d 283f 5c3a 6a30 a0bd 1050 93bd
00000100: 081b 353d 3f3c 81bb 1ef3 19bd 068c a83d
00000110: 7c79 8bbc 47ed 50bc 96af 94bd 4139 4abd
00000120: 119a ba3d 044a eb3b 8d21 17bd 5ef3 813c
00000130: 5228 18bd d284 803d 79dc fc3d 2d32 86bd
00000140: 4f8f 20bd 68fd 5e3d ae94 9c3c 9f8b 19bd
00000150: fe59 613d c6e4 623d 4c7a 213d d8bc 97bc
00000160: c4a8 e4bc a1b2 383c d8ae 40bd 9214 65bd
00000170: 0d6e 473d e6c0 c73d a4dc 8abc 8c78 0dbd
00000180: 031e 713c 4b1f a93c 2a7a 8a3c 8f32 093d
00000190: 53d4 c2bd b007 29bd f3ee d63d cf0b 473d
000001a0: e597 81bc cbf7 7fbd e207 63bd 7438 dcbd
000001b0: 8907 0bbd af36 113d bb82 743d d992 4c3d
000001c0: 73db c2bd 6c6b a1bd cc64 88bc baa7 cd3d
000001d0: 56a3 69ba 1db1 843c 98ba 823d c531 0cbd
000001e0: 66ce 9fbd 5716 973d e4a6 13bd 466e a9bc
000001f0: bbdd d1bd 6f8d b43d 1fcb b03d 513d 1a3d
00000200: d5f4 a9bd 6c9e debd f950 b5bd 506c 7e3d
00000210: 6977 803d 4c7f f73d ec41 473d 8a38 db3c
00000220: b3b9 84ba 2a23 a4bd 6cfb b8bd bfdc c9bd
00000230: 4f6a 313d 2792 53bd 2095 aebc 910f 78bd
00000240: f162 19bd fc46 aabd 317f 95bd a267 f13c
00000250: adc7 e7bc d314 8a3d 1ef0 d4bc 93bb 9fbd
00000260: 557b acbc 0f12 d7bc c49f d4bc deed d1bd
00000270: 959e 8d3d 5f80 8bbd 9eef 5e3d 8bff 4a3d
00000280: 85e3 c03d 0728 a5bd 4ebe 9f3d 8a46 ebbc
00000290: 3253 1d3d f8b7 b43d c782 18bc 421d 5bbc
000002a0: e273 09bd f651 9bbd 08b5 993d 5d4e d6bd
000002b0: 6204 863d 768a a13d 662c cc3d 3eb5 cbbc
000002c0: 4b71 b1bd da27 c23c 9183 6e3d 8cdd d6bd
000002d0: 4b94 c8bc 6ef5 84bd 5f70 2abc e244 5dbd
000002e0: 1d78 33bd 1190 13bd 1016 d1bd 0351 b23d
000002f0: 0563 b63d 5808 8abc c781 48bc 553a 30bd
00000300: 50f7 c7bd 9d27 cdbd eeb7 1c3d 2fb9 5ebd
00000310: d458 87bd e83a 27bc 9ee6 1cbd c7e1 23bd
00000320: ab38 25bb 82df c7bc 0887 20bd d833 64bd
00000330: ee64 b0bd b371 b43d abf1 2cbd 314f b23c
00000340: 99f8 27bd 9a4d 953b 3b96 c43d 4117 383d
00000350: b28c c1bd e14c 0f3d d44d b03d 8410 ab3c
00000360: b3db 8d3d a7f0 d23d 5def 89bc ed2a b93c
00000370: a4c1 8fbd 9cbb bebc 7671 913d 433e 573d
00000380: 0916 92bd c81b adbd f285 93bd a50b d5bd
00000390: 7b94 a6bd c2d5 d5bc 90b5 913d 7e7a 903c
000003a0: 5c3a a4bd a62e adbd 5e9a 3e3d f32f acbd
000003b0: a143 98bc 9697 413d 6ae3 5cbd 75d1 60bc
000003c0: 8920 65bc dbf4 d0bc b04d 62bd 0573 c0bd
000003d0: fe80 aebd 0a28 67bd 35db cd3d 6694 4dbd
000003e0: d2ec 92bd 8120 b63c cc6c d93c 2863 763d
000003f0: c278 a13d 54fc 6f3d fc29 d6bd 1c4b 3d3c
0.20785587 0.076196715 0.019828465 -0.06402454 -0.1894239 -0.23062277 -0.10135671 -0.24149813
-0.22978047 0.008417388 0.02533173 -0.043729074 -0.15690207 -0.32588324 -0.2010694 -0.08298458
-0.18451123 -0.19036984 -0.0024629373 0.059073325 0.123078026 0.078293405 0.31983224 0.24270067
-0.002856393 0.10768109 0.13229334 -0.19237259 -0.016975971 -0.12943542 0.0192408 0.0009960566
-0.11868225 0.23912106 0.061340082 0.009286283 -0.07653241 -0.15011962 -0.043075606 -0.06552009
-0.0790258 -0.2282724 0.12373502 -0.13246632 -0.11057905 0.023268605 0.054912627 0.08468499
0.09610751 -0.08363791 0.027472882 -0.045425195 -0.012944147 -0.077706814 0.22180654 -0.03600923
-0.0367734 0.17596559 0.03915324 -0.12317169 0.075669155 0.0008401745 -0.07821734 -0.07193005
0.044215232 -0.0039439495 -0.03758537 0.08229832 -0.017025702 -0.012751884 -0.07260053 -0.049371008
0.09111417 0.007180454 -0.03689723 0.015863117 -0.037147827 0.062753335 0.12346739 -0.06552539
-0.03919917 0.054440886 0.019113865 -0.03748667 0.055017464 0.055393957 0.039423272 -0.018522665
-0.027912505 0.011273057 -0.047041744 -0.05592782 0.048688937 0.09753589 -0.016950913 -0.03453879
0.014716628 0.020644804 0.016903955 0.033495482 -0.09513154 -0.041267097 0.10494795 0.048595246
-0.0158195 -0.062492173 -0.05542744 -0.10752955 -0.033942733 0.03545254 0.059694987 0.049944732
-0.09514513 -0.07881817 -0.016649626 0.10041757 -0.00089125836 0.016197735 0.06383246 -0.03422715
-0.07803039 0.07377308 -0.03604783 -0.020682465 -0.1024737 0.08816039 0.08632492 0.037656132
-0.08298651 -0.1087006 -0.08853335 0.062115014 0.06272776 0.12084827 0.048646852 0.026760358
-0.0010126143 -0.080145195 -0.0903233 -0.09856557 0.043314274 -0.051653054 -0.021311343 -0.06056172
-0.037447874 -0.083143204 -0.072996505 0.029468361 -0.028293455 0.06742253 -0.025993403 -0.07799449
-0.021054903 -0.026253728 -0.025955088 -0.10250448 0.06915013 -0.06811594 0.054427736 0.04956011
0.09418396 -0.08064275 0.077999696 -0.02872016 0.03840942 0.08824152 -0.0093085235 -0.013373675
-0.03355778 -0.07583992 0.07505232 -0.10464165 0.06543805 0.078877375 0.09969406 -0.024866696
-0.08664187 0.023700643 0.05823094 -0.104914755 -0.024484774 -0.064921245 -0.010402768 -0.05402077
-0.04381572 -0.036026064 -0.10209286 0.08706858 0.08905605 -0.016849682 -0.012237973 -0.04302438
-0.09763968 -0.10017321 0.038261347 -0.054375824 -0.066087395 -0.010206915 -0.03830587 -0.04001024
-0.0025210779 -0.024398569 -0.039191276 -0.055713505 -0.08613001 0.08810749 -0.04222266 0.021766277
-0.041008566 0.00455637 0.09598967 0.04494405 -0.094506636 0.034985427 0.086085945 0.020881899
0.0692667 0.10299807 -0.01683777 0.022603476 -0.07019356 -0.023282818 0.07101719 0.05254961
-0.07133109 -0.084525645 -0.072032824 -0.10402612 -0.08133789 -0.026102904 0.071147084 0.017636534
-0.08018944 -0.08456163 0.046533935 -0.08407583 -0.018586935 0.047263704 -0.053927816 -0.013721813
-0.013984808 -0.025507381 -0.05524987 -0.09396938 -0.08520697 -0.05643467 0.10051576 -0.050190352
-0.07174076 0.022232296 0.026541136 0.060153157 0.07884361 0.05859025 -0.10457227 0.011553552

conv_block_1.2.bias f4 [10]
00000000: eadf c03e 4ad9 65bd f8d6 8dbd a1e3 d53e
00000010: 0299 cebd bc4b 433c b887 3d3e 659b 083e
00000020: a48a b43e 7e3c 873d
0.37670833 -0.056115426 -0.06925768 0.4177523 -0.10087778 0.011919912 0.18508804 0.13340528
0.35262024 0.06603335

conv_block_2.0.weight f4 [10, 10, 3, 3]
00000000: ea94 653d 7a6d ecbd bd82 a0bd 5a13 8a3c
00000010: cf20 c23c 80b5 a03d bfe3 c1bd cd5e 0c3d
00000020: bee8 1d3d 941b 6e3d 8117 c8bd 236e 20bd
00000030: 3502 bbbd 5322 88bd 4837 793d 69f2 84bc
00000040: efe9 3c3d 8e69 7ebd 6320 833c 659d 82bd
00000050: 697e 563d 9476 3dbd 992d d8bc 5077 bbbd
00000060: eefc a139 d597 cc3d 624a 513d 3795 11be
00000070: 4376 9c3d 87a3 873d 010d 1abe dad6 d83d
00000080: 89db 53bc 5b03 04bd 1251 b4bd 2f83 c2bd
00000090: caba 11bc 4767 bd3d fa6a 293d 9bdb 88bd
000000a0: 85b7 0a3e 461f 923a 3f7a 95bd 0059 08bd
000000b0: c841 083e 233b 4ebd d38d 9e3b 0162 93bc
000000c0: cd86 8abd 71d6 43bd 2465 5bbd f4a4 903c
000000d0: 743e 053d 86af 103b 5dd4 12be 4279 cd3d
000000e0: 663e ddbd ed22 733c 8a66 133e fcbe a33d
000000f0: a41f ad3d 56e9 af3d 94eb 3cbd ef6f bfbc
00000100: 323d 05bc 77ea 4f3d 55fd a3bd 63d3 963c
00000110: 75fd b9bd d045 2dbd c5cc 9ebd 8aac 04bd
00000120: 1465 1cbe 000d 9dbd e009 8c3d 18e0 48bc
00000130: de9c 053e d053 973d d5d5 01be 7437 f3bd
00000140: f268 d7bb 5a44 af3d 9fef 7c3d 21aa 633d
00000150: 2689 fd3d bee6 d63d cab8 34bd 38d5 c43d
00000160: fedf c03d ff24 843d 79ef 803d c1df 03be
00000170: 8653 29be d0d5 a93e b16a 8abe e90b d3bd
00000180: 7aa8 92bc e2c8 46be 1ae6 4abe 3f60 543d
00000190: 8e58 65bd b85d e0bd 6bdc 20bd a0ab a43d
000001a0: 5581 e2bc e9c1 093d bc9a 49bd 9da5 b03d
000001b0: f83e 863d e58e 213d ffb5 42bd e4af b0bd
000001c0: b059 d33b d0b7 63bd 43c1 b23d 4e36 cfbd
000001d0: 2209 413d 08c8 efbe cbc3 123c 3787 e2bd
000001e0: 7a88 69be 7290 533f d83b d03e bfce 23bf
000001f0: 40a8 893e ef68 9b3d 0025 643e b147 333d
00000200: 4aa7 e9bd 951b 3a3d d917 debd 567a 22be
00000210: 7ff4 3d3d b4eb 1abe 8c73 d6bc fa7a 64bd
00000220: b762 23bf c11e a6be a19b 0c3f c0a7 84bc
00000230: 9963 d1bd 70ea 743e a842 093e 71fd c23d
00000240: 4f4e cabe 7d56 e5bd 2a95 7d3d 07c1 0ebf
00000250: 99a7 7a3e 8276 fd3e 894f 0dbf 21d3 a73d
00000260: 21c6 1f3d e82b a8bd facb 42be 8cde 503e
00000270: db97 48be 414d 1a3e d0bc 173e e901 90be
00000280: 26cb 363d 1960 4c3c e850 e5be b385 2fbe
00000290: 99ac 193e c55b 80be c77b d23e 7d6f 1a3f
000002a0: facd e5be 8e57 e53d 186b 51bc 3ce3 c43d
000002b0: 6c74 753d eb8a 69be d8e2 503d 1ca8 533d
000002c0: c829 4dbe 44d6 37bd c464 bbbc 1195 283e
000002d0: dde7 1b3d e287 083e 0637 683c aa47 af3d
000002e0: 0327 2ebd c493 d1bd 1e27 233d 5dc5 8cbd
000002f0: c060 963c 77d0 d1bc 95f9 59bd 2a6a 04bd
00000300: 2c33 1cbd 4c36 d33d 2b7c 0ebd 1881 9bbd
00000310: b62b 303d 554f dfba 2edb a43d 07c7 863d
00000320: 0171 c63d d3be 9dbd 8324 8b3d 8758 b63d
00000330: c7a2 54bd 0f02 c73d a220 a23d 0a76 2ebe
00000340: f431 35be 899e 6cbd 2614 8cbe 7076 b3bc
00000350: a9df 2f3e fa12 4cbe 6fed af3d 9d1c c8bd
00000360: 1499 4b3d 206f a93c c916 103e edad d7bd
00000370: a26d 133d fb8c 083e 541b 9cbc 21f5 3d3d
00000380: 03b4 bd3d 74db 05be fac9 e2bd 7144 73bb
00000390: d5df 47bd 7b8c 503d b809 013c 61c7 70bd
000003a0: ab82 083d 603e cabc 4053 8cbc 4326 16bd
000003b0: 42af 0cbd 1348 8cbd 956b 89bd 274e 4c3e
000003c0: a07d 17be 511d 14be 4447 ed3d e20b 2fbd
000003d0: c78f 1abe ff39 023e edbc 17bd 7960 fa3c
000003e0: 58b2 f03d d9e0 33be 3442 823c 242f ad3d
000003f0: 9264 2bbe e2d7 83be 962b e73d 947c 61bc
0.05605022 -0.115443185 -0.07837436 0.01685493 0.023697285 0.078471184 -0.09467267 0.034270097
0.03855204 0.05813177 -0.09770108 -0.039167535 -0.0913128 -0.06647172 0.060843736 -0.016228871
0.046121534 -0.062112384 0.016006654 -0.06377677 0.052366648 -0.046255663 -0.02638893 -0.091536164
0.0003089676 0.09989897 0.051096328 -0.14217077 0.07639744 0.06622987 -0.15044023 0.10587855
-0.012930759 -0.032229763 -0.088045254 -0.094976775 -0.008894632 0.09248214 0.041361786 -0.066825114
0.1354657 0.0011148236 -0.07298707 -0.033288002 0.13306344 -0.050349366 0.004838684 -0.017991068
-0.067639925 -0.04781193 -0.053563252 0.01765678 0.032530263 0.0022077276 -0.14338823 0.10032894
-0.10802917 0.01483987 0.14394584 0.07995412 0.084533006 0.08589427 -0.046123102 -0.023368804
-0.008132266 0.050760712 -0.080073036 0.018411344 -0.09081546 -0.042302907 -0.077539004 -0.03239111
-0.15272933 -0.07668495 0.06837821 -0.012260459 0.13048121 0.07389033 -0.12679227 -0.11875811
-0.0065737898 0.08557959 0.061751958 0.05558217 0.123796746 0.10493229 -0.04412154 0.09610981
0.09417723 0.06452369 0.06295676 -0.12878324 -0.16535768 0.33170938 -0.27034524 -0.10305006
-0.017902602 -0.19412568 -0.1981434 0.0518496 -0.055992655 -0.109553754 -0.039272707 0.08040547
-0.027649561 0.033632193 -0.04921983 0.08625338 0.06554979 0.039442915 -0.047536846 -0.086272985
0.0064499006 -0.05559522 0.08728268 -0.1011778 0.04712785 -0.468323 0.0089578135 -0.110609464
-0.22805968 0.8264228 0.40670657 -0.63987345 0.26886177 0.07588374 0.2227974 0.043769542
-0.11408861 0.04543646 -0.10844392 -0.1586698 0.046375748 -0.15128976 -0.026178144 -0.055781342
-0.638225 -0.32445338 0.5492497 -0.01619327 -0.10224075 0.23917556 0.13404334 0.09520996
-0.3951287 -0.11198137 0.061909832 -0.55763286 0.24477996 0.49504477 -0.55199486 0.081945665
0.03900731 -0.082114995 -0.19023123 0.20397395 -0.19589178 0.15068533 0.1481812 -0.28126457
0.04462733 0.012474083 -0.4478829 -0.17140846 0.15007247 -0.25070015 0.4111006 0.6032637
-0.4488371 0.1119834 -0.012781881 0.09613654 0.05992548 -0.22806899 0.050997585 0.051673993
-0.2003547 -0.044882074 -0.022875197 0.16463114 0.03806292 0.13333085 0.014173275 0.08558591
-0.042517673 -0.10233262 0.039832227 -0.068735816 0.01835668 -0.0256121 -0.053216536 -0.03232781
-0.03813474 0.10313091 -0.034786385 -0.07592982 0.043010436 -0.0017037193 0.08049618 0.0658093
0.096895225 -0.077024125 0.067940734 0.08903604 -0.05191305 0.097171895 0.079163805 -0.17037216
-0.17694837 -0.05776838 -0.27359122 -0.021907061 0.17175163 -0.19929114 0.08590209 -0.097710826
0.049706534 0.020682871 0.14071192 -0.105312206 0.035993226 0.1333503 -0.019056 0.04637635
0.0926285 -0.13071996 -0.1107368 -0.0037119652 -0.048797447 0.050915223 0.007875852 -0.058783893
0.03332774 -0.024687946 -0.01712954 -0.036657583 -0.034346826 -0.068496846 -0.06709973 0.19951688
-0.14794016 -0.14464308 0.115858585 -0.04273594 -0.15093909 0.12717436 -0.037045408 0.03056358
0.11752766 -0.17566241 0.015900709 0.08456257 -0.16737583 -0.25750643 0.1128761 -0.013762612

conv_block_2.0.bias f4 [10]
00000000: 24fc 0abe d841 a03e 55e0 11be 13f6 c6bd
00000010: fa41 0bbe ac49 233c 4ce7 9b3e 8c58 b83e
00000020: be5f 323f 6d30 4ebd
-0.13572747 0.31300235 -0.14245732 -0.09714904 -0.13599387 0.009966295 0.30449903 0.36005056
0.6967734 -0.05033915

conv_block_2.2.weight f4 [10, 10, 3, 3]
00000000: c100 11bd 2e27 dfbd 860d 13bc 9dc1 c5bd
00000010: 0eda 2d3d 88dc c8bc 1db8 173b 49e1 9fbc
00000020: 83db bb3d 4dbc 19be 1728 3cbe 3781 a7be
00000030: e68b 9c3d a577 be3c b07c 40bf 5578 943e
00000040: f74b 653e d56e 11bf 2fad 04be 2a29 08bd
00000050: 0a5a cd3d 2789 9bbe a9e7 9d3d 66b5 2e3d
00000060: 7288 e5bd 4f29 9c3d 20be 08be a8e0 aebd
00000070: d140 ce3d 7a6e 8ebd a272 64bd c397 32bc
00000080: 67cc 19bd 049b fd3b 81be aabc 5297 1b3d
00000090: de69 e0bd 6f37 7d3d 9ab2 9cbd d7f8 12bd
000000a0: 76c8 97bd 14fa f4bd 2b2b 43bd 8805 9fbd
000000b0: f9b0 a8be b705 e1bd 7581 27be 5be6 5f3d
000000c0: e0f3 28be 1fb1 cbbd 9345 1abc bab9 64bd
000000d0: 5ed9 98bc 1eb8 a2bd 0a5d 83be 306e f6bc
000000e0: 6a19 fabe f03a 92be 0717 453e d203 053f
000000f0: 29cf 2bbe bdd2 fe3d ab69 563e 0eab 903e
00000100: 087b ab3d d9bc 2abe 3639 323e 4947 0f3c
00000110: 9179 adbd babe 863e cbae abbe 58c6 fd3d
00000120: c136 a23e 7305 9dbd 4708 be3d 1a6c ecbb
00000130: 8434 d2be a45b d03d 8f06 77be e330 d6be
00000140: 440a 88bd ee23 08bd 6bcf 1a3d 79fd 53bd
00000150: 34f7 02bb 4f87 55bd 8732 86bc a2f6 9b3d
00000160: 67a3 f33c 4d6d 19bd 901d b53d 8553 a6bc
00000170: 1e42 bfbd 256e 3ebc 74fd 26bd a767 04be
00000180: d31e 453e 6a62 96bd 1d0f 3dbd 09c3 73bd
00000190: 5135 883d 1a6c 86bd 1ec8 41bd 91d6 fabe
000001a0: eb7e 9b3e c975 2b3e 83f9 3abf 4764 673e
000001b0: 5ad0 cabd b23b 59be b9d9 253d 1707 6bbd
000001c0: 3c1d 93be f3b2 31bd 92e7 0bbe 4cc4 a3be
000001d0: 189f c53c 7041 d5bd 4a53 5a3d 2b61 8d3d
000001e0: 2456 aa3b b117 93bd 75d1 85bd e6fc 44bd
000001f0: 33e9 e83c 4660 933b da5a 46bd 5587 df3b
00000200: d539 003e 641c 583d 1075 01be 8e3b a53d
00000210: 0881 5d3e 59fe 09be 1258 e3bd 63b3 d4bc
00000220: 5fc8 dc3d ee50 173e e56c 2ebb ecf2 c7bd
00000230: 7060 403e d92d 3c3e b42f d13c ab6d 653d
00000240: 8d6c 53be 7ba8 8cbe ace7 743e 9a75 b7bb
00000250: de08 62be 9693 c63e e48a 503e be7c 85be
00000260: 2a2b 233d a252 fc3d 6473 1ebe 4a65 86bd
00000270: 9c2d 393e daf4 e0be cc5b 173e df8c 873e
00000280: c05d 24bf c9ee 3fbc 4a1e 8ebe af97 7bbe
00000290: 6bf9 6abe 0786 093d a602 563d 60da fbbe
000002a0: 4aaf 843e 43a5 ee3e 3c31 c2be 599e 79bc
000002b0: d77c 733d f6e1 dc3d 2998 76bd 7e60 51bd
000002c0: 9084 393d e6de 20bb 2885 f3bc 4ecc eebd
000002d0: 7429 bd3d 4a0a 6cba 1f0d 96bc 22f3 2cbd
000002e0: 60dc aebc b1e5 483d 736f 26bb e7f2 b23d
000002f0: dac3 10bc b5d0 38be 449a 8bbd c28e 29be
00000300: 4f74 cebd 6c0e 8dbb 97eb a63c 5164 13bd
00000310: c17c 143d d578 803c 5eab adba 1c54 543b
00000320: fa61 c9bc 845d b8ba ebb5 9e3d 363d 823d
00000330: 147d 6f3c e1ae d6bc cf15 5a3d 1276 abbd
00000340: a1d0 983d 53fc 4c3d 2e69 8b3d a826 0abc
00000350: 991d aabd 5800 9d3d ba66 38bd c2ac c23c
00000360: 5209 7d3d 8f49 c7bd 22b9 b63b 4543 13bd
00000370: def3 9a3d abc5 8bbd 1560 843d e950 873d
00000380: 50fc 6a3d f2e2 c23d ab84 ca3b b8f7 e9bd
00000390: 814c b13d c234 903c 4f1d 4e3b 16d0 b3bd
000003a0: db98 34bc b551 38bd 87bf 263d 07d3 e63c
000003b0: 6998 023d 1034 ae3c 9a93 c6bd ddbb a5bd
000003c0: ea45 bfbd 6e44 9dbd 7719 2d3d ca8f cf3c
000003d0: 918e b03d 1b32 93bc 5493 e1bd fb2d 0bbd
000003e0: b43a 6b3d 3466 053d 2968 063b 412d aebd
000003f0: 8e53 13be e2c6 d3bd 7f65 533b 1c27 94bd
-0.03540111 -0.10896145 -0.008975392 -0.096560694 0.04244428 -0.02451922 0.0023150512 -0.019516604
0.09172728 -0.15013237 -0.18374668 -0.3271577 0.07643871 0.02325041 -0.7519026 0.28998056
0.2239226 -0.5680974 -0.1295669 -0.033242382 0.10026939 -0.30378076 0.07710201 0.042653464
-0.112076655 0.076250665 -0.13353777 -0.085389435 0.100709565 -0.069546655 -0.055773385 -0.010900441
-0.03754845 0.0077394266 -0.020842792 0.037986107 -0.109576926 0.061820444 -0.07651253 -0.035881843
-0.07411282 -0.11961761 -0.04764859 -0.07764727 -0.3294752 -0.10987418 -0.16357978 0.054663043
-0.16499281 -0.099458925 -0.009416002 -0.055841185 -0.018658336 -0.07945274 -0.2565692 -0.030081838
-0.48847514 -0.2856059 0.19247065 0.51958954 -0.16778244 0.12442539 0.20938747 0.28255504
0.08373076 -0.16673602 0.17404637 0.008745023 -0.084704526 0.26317388 -0.33531794 0.12391347
0.316824 -0.07667055 0.092789225 -0.007215035 -0.4105569 0.10173729 -0.24123596 -0.41834173
-0.06642583 -0.03323739 0.037795465 -0.051755402 -0.001998377 -0.052130993 -0.016381515 0.07615401
0.029741002 -0.037457753 0.08843529 -0.020303497 -0.09338783 -0.01162294 -0.040769055 -0.12930165
0.1925004 -0.0734299 -0.04615699 -0.059512172 0.06650794 -0.065635875 -0.047309987 -0.48991826
0.30370268 0.1674415 -0.73036975 0.22596847 -0.09903021 -0.21214178 0.04049084 -0.05737981
-0.28733242 -0.04338355 -0.13662556 -0.319857 0.024123713 -0.10412872 0.053302087 0.06903299
0.005198257 -0.07182253 -0.065340914 -0.048092745 0.02843151 0.0044975607 -0.048426487 0.0068215528
0.12522061 0.05276145 -0.12642312 0.08068 0.21631253 -0.13475932 -0.111007825 -0.025964445
0.10780405 0.14776966 -0.00266152 -0.097631305 0.18786788 0.18376864 0.025535442 0.05601279
-0.20646878 -0.2747229 0.23916501 -0.005598736 -0.22073695 0.38784474 0.20365483 -0.26071733
0.039836086 0.123204485 -0.15473706 -0.06562288 0.18083805 -0.43936807 0.14781111 0.26474664
-0.6420555 -0.011714646 -0.27757484 -0.24569581 -0.22946708 0.033575084 0.05224862 -0.49190044
0.25914985 0.4661046 -0.37928188 -0.015235507 0.05944523 0.10785286 -0.060203705 -0.051117413
0.045292437 -0.002454692 -0.02972658 -0.11660062 0.09236422 -0.0009004219 -0.018316804 -0.042224057
-0.021345317 0.049047176 -0.0025396019 0.08737736 -0.008835757 -0.18048365 -0.06816533 -0.16558364
-0.10080778 -0.0043046977 0.02037601 -0.03598434 0.036251787 0.015682617 -0.0013249924 0.0032398766
-0.024582852 -0.0014065956 0.07749542 0.06359331 0.014617223 -0.026206436 0.053243455 -0.083721295
0.07461668 0.050045323 0.06807171 -0.008432068 -0.083064266 0.07666081 -0.045019843 0.023764018
0.061776467 -0.09730827 0.005576269 -0.035952825 0.07566045 -0.068248115 0.06463639 0.06607229
0.05736953 0.09515943 0.006180366 -0.11424202 0.0865717 0.017603282 0.0031450575 -0.087799236
-0.011022772 -0.044999797 0.04071 0.028176798 0.03188363 0.02126506 -0.096961215 -0.08092473
-0.09339507 -0.076790676 0.042260613 0.025337119 0.086209424 -0.017968228 -0.11014429 -0.033979397
0.05742903 0.03256817 0.0020508862 -0.08504725 -0.14387342 -0.10340668 0.0032256541 -0.07234022

conv_block_2.2.bias f4 [10]
00000000: aa71 8a3e fef5 aabd 7772 00be c842 d5bd
00000010: ea58 81be abd4 9a3e 3898 043e a881 86be
00000020: 29f2 aebd 3eb9 7dbd
0.27039844 -0.083477005 -0.12543665 -0.10413128 -0.2526315 0.30240378 0.12948692 -0.26270795
-0.08542282 -0.06194424

classifier.1.weight f4 [10, 490]
00000000: 69b4 81bc 2778 97be 5d44 5a3e 1262 f4bd
00000010: dc8d 083e 3a3d c83d ff95 163e 82e5 953c
00000020: bba3 6d3e 9514 9b3d 5d6e 6abe 3545 d33d
00000030: c8f5 de3d 8aff e33d 07b2 c73b cfa9 9d3d
00000040: 4d6f 143e 610d 07be 1b51 603d 3c48 f53c
00000050: 45bd 1fbe c8f4 35bd e2e1 ff3d 7474 213d
00000060: f4d6 89bd 8c23 ef3d 1809 ddbc 8ccf 29be
00000070: cc6a 8bbd 4c32 583b 9375 fbbd e281 09be
00000080: 5407 683e 503f f4bd a943 86bd f49d 163d
00000090: cd5e 12be 9e3b 0abe 882e ddbd 52a0 4bbd
000000a0: f6ec 403e 36cc 01bd 51bc 553d 621d 32be
000000b0: b12f 51be 9e1b a4bd 699b 25bd a87c 9e3e
000000c0: ac4f 66bd 9d83 473e 248e 6c3e 9036 55be
000000d0: fd0a 11be 7be9 df3a f2d0 83bc 5dd9 c53d
000000e0: d8b1 7d3d 9227 a0bd 4b26 59be 2ccc 193d
000000f0: 7a57 c9bc dac3 703d ee1d 0dbb 01f6 aa3d
00000100: 67e7 833e 194e 01be be6f 2ebc 203c 43bc
00000110: 2fe1 223e 32b3 203d b62f 8b3d 3e48 003d
00000120: 5b38 b33c ac0b 00be ed35 3fbd 26b8 4f3e
00000130: 1880 e5bd f7c7 71bd 4e61 8cbd f09d dcbc
00000140: 1902 dcbd 3a34 883d d2c3 463e fa2e 45be
00000150: ed21 28be a1e2 6ebd 069a 3ebd c7fe 0bbe
00000160: 0e8d a9bd ca33 f43c 9e26 abbc c585 c5bd
00000170: 8d62 c8bc 7d25 5c3e bd3a 28bd 7569 86bd
00000180: dea3 0ebe e7da c03d 5ed0 6e3d af61 963d
00000190: 9d3b 4fba 071e df3b e1a9 07bc fd09 993d
000001a0: 5f74 94bc f249 d13c 4534 b23d a971 ca3c
000001b0: 32c0 8dbc 4a79 86bc 3edb ca3c 0cd6 7a3d
000001c0: 334a 0fbc 9ccf 9a3d 8657 fa3c 07ed d0bc
000001d0: d42a 9abc aa85 623d f7b6 0a3d 435a b43c
000001e0: 3856 b73c de92 4ebd 980d 4cbb 54fa e5bb
000001f0: 3e26 92bd 60ec 25ba b7d9 9bbd b224 8cbd
00000200: 1e9d aabc ddc8 ecbc c9fc 05bd a69f b1bd
00000210: 2507 a1bc 7f1c d0bb 7515 12bd 6e51 15bd
00000220: 2843 e9bb f520 0bbd 6177 8fbd 22f5 50bd
00000230: b6c2 4ebb 71c6 f2bc c17c 873c 6470 8d3a
00000240: a699 dbbb fe3b 4abc fb11 bebc cc18 313e
00000250: 6e11 22be 8dba 18bd 8e0c b43b 6c65 073e
00000260: 0401 e7ba bb3b 8dbc 51b9 03be 7826 983d
00000270: f539 9fbd 3408 6b3d 2db3 b13d f856 13be
00000280: 334c 38bd 9586 f0bd d366 f6bd 6aa6 6ebd
00000290: a9c3 7f3d 0a56 613d 1361 91bc 4484 393e
000002a0: 3628 b63d b272 ca3d 8810 35be 7841 943c
000002b0: 10b9 003c 8f06 2d3c 47a1 ce3d a69f e2bc
000002c0: 2608 833e c869 83bd 71ed a5bd 7215 96bd
000002d0: b016 e5bd e77b b03d 8f3d ebbd 9ecd 343e
000002e0: 5e73 2abd d208 06be 1de3 4fbd 5e88 48bc
000002f0: 32da b43d 2846 f73c f580 68bc 427a 70bd
00000300: 08ed 56bd 0a45 11be b075 a1bc 199b 3bbd
00000310: eb34 173d 03ce adbd 9b5f 303d 242e 563c
00000320: 7594 7b3c 6688 f7bb ff14 0d3d 8f6a 04bd
00000330: 02de bbbd 689b 333e 132c 373e 7670 603d
00000340: 669d 573d ebc2 023c 4caa dd3d 27fc 8c3e
00000350: 51dc e2bd 9da3 ab3d 0934 e63b f357 523e
00000360: f2b0 d13d c147 9c3d 2a06 a6bd ee22 d4bd
00000370: a56c 813c a23f 03bd ab32 1f3d 928c bfbd
00000380: c4d9 0fbd b6f6 0b3d 8173 e1bc 0662 0e3d
00000390: f337 a8bd 8626 93bd e1e8 4dbd 2dd7 f53b
000003a0: eb50 9fbd ea38 033e c7c8 53bb e25a 3e3d
000003b0: 6d29 3fbc 400e efbd e1a1 b5bd 9af2 a13d
000003c0: 58c9 833d ef25 51bd b713 96bd e69a 40bd
000003d0: 8379 15bc 9cd6 803d 9200 013d e6d7 b83c
000003e0: 8673 71bd 3978 1b3d 04a8 ae3e 5d3a 063d
000003f0: 5a50 6a3d b628 5abd 2274 343e 8ad5 3d3e
-0.015833097 -0.29583856 0.21315141 -0.11932768 0.13335365 0.09777303 0.14705656 0.018297914
0.2320699 0.07572285 -0.22893663 0.103159346 0.10886723 0.111327246 0.0060942206 0.07698404
0.14495583 -0.13188697 0.05476485 0.02994167 -0.15599544 -0.044422895 0.124942556 0.0394177
-0.06730452 0.11676702 -0.026981875 -0.16583079 -0.06807479 0.0032988964 -0.12278285 -0.13428453
0.22659045 -0.119261384 -0.06555874 0.03677173 -0.14293976 -0.13499305 -0.10799891 -0.04971344
0.18840393 -0.03168889 0.052181546 -0.17394021 -0.20428349 -0.0801308 -0.040431414 0.3095448
-0.056228325 0.194838 0.23101097 -0.20821595 -0.14164348 0.0017083132 -0.016090844 0.096605994
0.061937183 -0.078200474 -0.21206014 0.03754823 -0.024577845 0.05878053 -0.0021532732 0.08347703
0.25762483 -0.12627448 -0.010646759 -0.01191619 0.15906213 0.039233394 0.067962095 0.031318896
0.021877458 -0.12504452 -0.046682287 0.20285091 -0.112060726 -0.059028592 -0.06854497 -0.02693078
-0.107425876 0.066505864 0.19410637 -0.19256201 -0.16419192 -0.0583216 -0.046533607 -0.13671409
-0.08278857 0.029809851 -0.020892438 -0.09644655 -0.024461055 0.21498676 -0.041071642 -0.06563083
-0.13929698 0.09416752 0.058304183 0.073428504 -0.00079053064 0.0068089995 -0.008280248 0.07472608
-0.018121896 0.025547955 0.08701376 0.0247124 -0.01730356 -0.016415257 0.024762746 0.061239287
-0.008745718 0.075591296 0.030559313 -0.025503648 -0.01881925 0.055303253 0.033865895 0.022015696
0.02237998 -0.050433032 -0.0031136032 -0.007018367 -0.071362 -0.0006329473 -0.07609885 -0.068429366
-0.020826872 -0.028904373 -0.032711778 -0.08673029 -0.019656727 -0.0063510532 -0.035664994 -0.03645461
-0.0071186014 -0.033966977 -0.070051916 -0.051015027 -0.0031549162 -0.02963564 0.01653898 0.0010790941
-0.006701666 -0.012343405 -0.023201933 0.17294616 -0.15826961 -0.037287284 0.0054946607 0.13222283
-0.0017624204 -0.017240396 -0.12863661 0.07429212 -0.07774726 0.05738087 0.08676753 -0.14388645
-0.044994544 -0.117444195 -0.12031331 -0.058264174 0.062442455 0.055013694 -0.017746484 0.18116862
0.088943884 0.09885158 -0.17682087 0.018097624 0.007856622 0.010560646 0.10089355 -0.027664017
0.25592154 -0.064166605 -0.08101929 -0.07328309 -0.11185968 0.086173825 -0.11486351 0.17656562
-0.04161393 -0.13089302 -0.0507537 -0.012239544 0.0883068 0.03018482 -0.014190902 -0.058710344
-0.052472144 -0.14186493 -0.019709438 -0.04580221 0.0369157 -0.08486559 0.043059926 0.013072524
0.015355219 -0.0075541018 0.03444385 -0.032328185 -0.09173204 0.17539752 0.17887907 0.05479475
0.05264034 0.007981042 0.10823497 0.27536127 -0.11077178 0.08380816 0.007025246 0.20541362
0.10238828 0.076308735 -0.081066445 -0.10358225 0.015798876 -0.032043107 0.03886668 -0.093529835
-0.035119787 0.03417083 -0.027520897 0.03476145 -0.082137965 -0.07185082 -0.05027092 0.0075024576
-0.07779106 0.1281468 -0.0032315718 0.04647339 -0.0116675915 -0.1167264 -0.088687666 0.07907601
0.06434888 -0.051061567 -0.07327979 -0.047022723 -0.009123209 0.062909335 0.031494685 0.022563886
-0.058948062 0.03795645 0.3411256 0.032770503 0.057205535 -0.05326148 0.17622426 0.1853849

classifier.1.bias f4 [10]
00000000: 700b 8c3c 8452 11be d885 ca3e d243 cdbc
00000010: d2ae d5be a597 21be 6e3f 5f3e 28d8 dd3c
00000020: b7b0 3d3e e1fc 0cbe
0.017095298 -0.14191633 0.3955524 -0.025056753 -0.4173494 -0.15780504 0.2180154 0.02708061
0.18524443 -0.1376834
